temp/checkpoint_1.pth.tar (torch, 149831 bytes, 7 tensors)

fc1.weight f4 [128, 14]
00000000: 14cd 24be cb96 f5bd 1dd3 233e 601f 7bbe
00000010: 9d75 debb 4dc9 983e ae4c 8cbd a2ae 93be
00000020: e457 563c 7a4f cb3d df00 19bd baf1 1fbe
00000030: 98e2 253e ac9d efbd 3d38 12bf a294 1e3e
00000040: b23b afbe 3ec0 113d bca9 403d 2eb1 ec3b
00000050: 226b a23d 02e8 67bd d72b 123e 2c74 783d
00000060: d6e6 8b3d dc28 723e 9d0a 5bbe 3357 273e
00000070: fa5f aebe 4c36 773e 3147 84bc 01d8 dabc
00000080: c2c4 34be 0d8f d3bd 9f08 36bd 93ec 8dbe
00000090: c277 ddbc 87dc 413e e153 483e 0eca 6d3e
000000a0: 222b d43d 47e4 133c 6778 873d b236 bfbc
000000b0: 4db1 45be 88b2 f33b 1966 adbd cb4b 8fbd
000000c0: 89e4 6abe 7e4d 023e 595b cebd dbf8 89bd
000000d0: c3b6 6bbe 4767 bb3e bf7b 003e 3958 89bc
000000e0: a3b7 b93e e50b d13e 6cfd 7fbe c418 723e
000000f0: c6c8 cfbe db9a f4bd dae6 543a 6912 cc3c
00000100: 13a3 d8bd 283c 173e 9543 453e 3aaa 75bd
00000110: c868 3e3e 8c14 373e c1ec abbd 468d d83d
00000120: 5860 b73d fc61 7fbc 4954 9239 86fa 8c3e
00000130: c879 d3bd 1bbc febd cab2 8ebe 194a 223b
00000140: 6dc0 183e 8bc9 973e 5df3 9dbe d8b2 e63c
00000150: 8da1 343d 167c ab3c da76 493e 4f7c a43e
00000160: f234 0cbe 3642 f53c f64f 873d 3e11 3cbe
00000170: 4034 373e bcd4 433e 7047 e63d 1607 edbd
00000180: 1c47 e9bd c2ac df3d c78b 4a3e 9455 0ebe
00000190: f67d 8d3d 9ee1 743c 1460 aab9 d459 98be
000001a0: c2cb 333d 452e 93bd f2f1 d43c 12de 953e
000001b0: af08 793e 3fec 8b3d 66b1 64be 33d3 0dbe
000001c0: e9c8 5dbf 99e8 663e 1c52 aa3d ceee 943d
000001d0: 6e59 3d3e fedc 03be fdb9 033e 8506 943c
000001e0: 673e 7ebd ca0a d2bd b0e3 5f3e bcbf 62be
000001f0: a455 0a3e c76e 4cbc 71aa a13e 67ee c5be
00000200: b31b 6abe f261 e9bd 4cf1 8c3e 1175 3e3e
00000210: 19dc b03b edb3 a73d 9b75 a4be 6c72 3a3e
00000220: 859f 87bd e82d 13be 5bb1 4dbd 32d7 893d
00000230: f2e2 53be 63f1 07bf 2845 4f3d db2f 76be
00000240: 1b1c 68be 04db d93d 1c18 3abe 21db d2be
00000250: 57be 4f3d 5ba4 78be e5ae 83bd f470 f93d
00000260: 1c95 4c3e 77fe 663e 5b0c ee3e 1b0d bd3e
00000270: 99e6 94bd 76c0 afbd 654e 81be 3ee3 b63d
00000280: 1d1a 3c3e 7db1 b9bc 4157 953d b92b 313e
00000290: 1b53 433d 3799 0cbe ed2c 573e 4189 02bd
000002a0: 6bc7 193e b7e2 87be 5b80 85be a3e9 113d
000002b0: 10e7 2fbe 3d03 483e c169 02be cde3 31bd
000002c0: 3039 60be c3f6 bdbe 4d48 f73d cd28 c1bd
000002d0: 2c63 c5bd 7d61 8e3d e6ad b23e c498 abbe
000002e0: 4b30 10bc 7f9e 8d3e 794a fabd 7cfa 223e
000002f0: cb00 1e3e a196 17be d3e7 c73d 63f3 80be
00000300: 07a4 7cbe 7ec7 31be 7dbc 0b3e d00a e4bd
00000310: 1a9d a93e 9727 b6bb 150c 8e3e 4026 61bc
00000320: 6314 10be e08d 8a3e aaf0 8fba a7cc 553e
00000330: 047e 90be 66be 21be 4015 043e 38e2 a93d
00000340: 4dd3 b2bd c03d 523d 8dba df3c e5dc 7c3e
00000350: 5832 7ebe 90fe 89be 6ca1 a2bd f505 29be
00000360: 0a79 11be 26d2 6b3e d251 903c 026b 29be
00000370: 2e4b cfbd 7833 0d3d d371 e0bc aa74 19be
00000380: 8796 033f 5819 703e 961b c0bd d00b 093d
00000390: 5182 513e a9f3 06be 519a 253e 3aa1 d0bd
000003a0: b068 0b3d cc38 56be 4798 1e3d 7b80 d23d
000003b0: 7e28 37be 1d12 b13d 7d75 d2be 3e90 7c3e
000003c0: 3373 7d3e 30f5 b03e ee87 683e f258 87be
000003d0: 3779 843d 2292 343a 6ec4 8bbe 3ea4 033e
000003e0: f3c4 72be fdc9 ee3d 62eb 493e c294 abbc
000003f0: 09d0 0bbe a7c6 21bf 52d3 35bd 678f b53c
-0.16093856 -0.11991652 0.15998502 -0.24523687 -0.006788923 0.2984108 -0.06850563 -0.28844172
0.013082478 0.09927268 -0.037354346 -0.15619555 0.1619972 -0.116999954 -0.5711706 0.15486386
-0.3422523 0.035583727 0.04703687 0.00722327 0.0793059 -0.056617744 0.14274536 0.060657665
0.06831138 0.23648399 -0.21390767 0.16341858 -0.340576 0.24141806 -0.016147228 -0.026714327
-0.17653182 -0.10330019 -0.044441815 -0.27719554 -0.027034644 0.18931781 0.19563247 0.23221609
0.103597894 0.0090265935 0.06614762 -0.02334151 -0.19305916 0.007437054 -0.08466739 -0.06996878
-0.22938742 0.12724873 -0.10076017 -0.067369185 -0.23018937 0.36602232 0.12547205 -0.0167657
0.36272916 0.40829387 -0.24999017 0.2364226 -0.40582865 -0.11943599 0.0008121558 0.024911122
-0.10577979 0.14769042 0.19264062 -0.059976794 0.18594658 0.17878932 -0.083947666 0.10573821
0.08953923 -0.015587326 0.00027910087 0.27534884 -0.10325962 -0.12438222 -0.2787078 0.0024763404
0.14917155 0.29645953 -0.30849734 0.028161451 0.04409938 0.020933192 0.19674245 0.3212609
-0.13692072 0.029938798 0.06607048 -0.18365952 0.17891026 0.1912412 0.11244094 -0.11573617
-0.11390516 0.10921623 0.19779883 -0.13899833 0.06908791 0.014946369 -0.0003249651 -0.29756033
0.04389549 -0.071865596 0.025994275 0.2927099 0.24319719 0.0683217 -0.22333297 -0.13850097
-0.8663469 0.22549666 0.08316442 0.07272111 0.18491146 -0.1287727 0.12863918 0.018069515
-0.06207123 -0.10255964 0.218642 -0.22143453 0.13509232 -0.012477583 0.3157535 -0.3865845
-0.22862129 -0.11395635 0.27527845 0.18599345 0.0053973314 0.08188615 -0.32120976 0.18207711
-0.06622223 -0.1437298 -0.050217967 0.067304984 -0.20692042 -0.531027 0.050603062 -0.24041693
-0.22666971 0.10637477 -0.1817326 -0.41182807 0.05071863 -0.24281447 -0.06429843 0.12179747
0.19978756 0.22558008 0.464938 0.3692406 -0.072705455 -0.08581631 -0.25255123 0.08930062
0.18369336 -0.02266764 0.07292033 0.17301835 0.047686677 -0.13730322 0.21013232 -0.031869177
0.15017478 -0.26540157 -0.2607449 0.035623204 -0.17177987 0.19532485 -0.12735654 -0.04343014
-0.21896815 -0.37102327 0.12074337 -0.0943161 -0.09638056 0.06952188 0.348983 -0.33514988
-0.008800576 0.27659985 -0.12221236 0.15915865 0.1542999 -0.14803554 0.09761014 -0.2518569
-0.24671946 -0.17361256 0.13646121 -0.11134875 0.3312767 -0.0055589187 0.27743593 -0.01374203
-0.14070277 0.27061367 -0.0010981758 0.2087885 -0.28221142 -0.15795287 0.12898731 0.08295101
-0.08731709 0.05132842 0.027310634 0.2469364 -0.24823892 -0.26952028 -0.07940945 -0.16506179
-0.14206329 0.23029384 0.01761714 -0.16544726 -0.10121761 0.034472913 -0.027398026 -0.1498591
0.5140156 0.23447168 -0.093802616 0.03345853 0.20459868 -0.13178886 0.16172148 -0.101870015
0.034035385 -0.20920104 0.03871944 0.10278412 -0.1788654 0.08646033 -0.4110526 0.24664399
0.24750976 0.34562063 0.22708103 -0.26435047 0.064684324 0.00068882306 -0.272983 0.12855622
-0.23707943 0.1165962 0.19718698 -0.020944957 -0.13653578 -0.63193744 -0.044390984 0.022163106

fc1.bias f4 [128]
00000000: 6993 f13d e2e5 febc aab6 353e ce0a ac3d
00000010: 0071 2c3e e6bc 2dbe 534c 9c3c e656 f4bd
00000020: 1e54 33bc 8543 0d3e c3c5 dc3c 8ef6 77be
00000030: bb5c c4bd 213f e43d ed57 c23d 45ae f2bc
00000040: 2d48 27be f1b0 b23d 970d 96bd ddd3 49be
00000050: b306 e53c 890b 2abe b4f8 363e f614 ac3d
00000060: 2054 3d3e e11a 113e 3964 a0bd 139b 943d
00000070: 80b4 fabd 9702 ecbd 8238 46bd 6106 e93d
00000080: 3fb1 92bd 098c cfbc eb46 5dbe e4bf ef3d
00000090: c4cc 5abb e41f 893d 82bd 163e d7a1 21bd
000000a0: 46f7 9dbd 2e42 7f3d fb11 92be 63ec 3ebe
000000b0: 3710 80bd 15bf 043e d86b 2e3e ea12 6c3e
000000c0: 8152 dd3d 4101 123e 0ad7 803d 5a5b 113d
000000d0: 3879 163e d838 03be fa41 6cbe de5b 3d3d
000000e0: c715 53be 8ffe 62be e6ff 053e 29cb ebbd
000000f0: 97bf 2abd 7d00 d53c 6f12 58be 5393 73be
00000100: d23f 0cbe e652 16be bfbf f83d ac7f 923e
00000110: 80f0 0fbe 5004 b1bd 9ce3 3e3d d85a 2e3e
00000120: 3ba3 13be a714 6ebe fefb 203e 8ad8 d13d
00000130: cfa6 37bd e1f6 003d a841 f1bd 8bd6 64be
00000140: b5a7 3d3e 25c9 39bd 3759 593d 3c2c 313e
00000150: 54b9 763e 86f1 723e ac4a b63c f71f c13d
00000160: 6c90 c1bc 7d5d 20be a13a 6fbd 30b8 85be
00000170: 7650 89be f69f 88be e3bd f3bc 066f 983d
00000180: 2226 bcbd 016c 45bc 9e8c 563e daf1 49be
00000190: 012c 8a3e e59d cabc 4319 3a3d 1b23 6b3e
000001a0: 25de c0bc f953 33be 7ddc 323e fefd ff3d
000001b0: 4c08 f13d cdbd a8bd 4d0c b3bd e7aa 023c
000001c0: 1d3a 803d 6576 2f3e 1bfc 553e 4867 313e
000001d0: 283f b4bd 8097 2bbe abeb a53d 7f81 fc3d
000001e0: 10dd 923d 047f 2d3e b393 3b3c 1731 94bd
000001f0: 3281 3a3e 74fb c9bd 0875 88bd d1bf 383e
0.117956944 -0.031115476 0.17745462 0.08400498 0.16839981 -0.1696659 0.019079363 -0.11930637
-0.010945348 0.13795288 0.026949769 -0.24215147 -0.095879994 0.111448534 0.09489427 -0.029624114
-0.16336127 0.08725155 -0.07326811 -0.19709726 0.027957296 -0.16605963 0.1786831 0.084024355
0.18489122 0.1417041 -0.07831616 0.072561406 -0.12241459 -0.115239315 -0.048393734 0.1137817
-0.07162713 -0.025335329 -0.21609084 0.11706522 -0.003338621 0.06695536 0.14720729 -0.039460983
-0.07713179 0.062318973 -0.28529343 -0.18644862 -0.06253093 0.12963517 0.17033327 0.2305409
0.10806752 0.14258291 0.062910154 0.03548751 0.14694679 -0.12814653 -0.23072043 0.04623019
-0.20613776 -0.22167419 0.13085899 -0.11513359 -0.04168662 0.02600121 -0.21100782 -0.23786668
-0.1369622 -0.1468006 0.12145948 0.2861303 -0.14056587 -0.08643401 0.046603784 0.17026842
-0.14417736 -0.23250066 0.15721127 0.1024638 -0.044836815 0.031485442 -0.11780101 -0.22347467
0.18521006 -0.045357842 0.053063598 0.1730203 0.24094135 0.23724946 0.022252403 0.09429925
-0.023628436 -0.15660663 -0.058405522 -0.26117086 -0.268192 -0.2668454 -0.029753631 0.07443051
-0.09186961 -0.012049676 0.20952079 -0.19721165 0.26986697 -0.024733493 0.045434248 0.2296261
-0.023543427 -0.17512502 0.17466922 0.12499617 0.11769161 -0.082393266 -0.087425806 0.007975317
0.06261084 0.17135008 0.20896952 0.17324555 -0.088011086 -0.16757011 0.08101591 0.12329387
0.071710706 0.16942984 0.011448788 -0.07235926 0.18213347 -0.09862414 -0.06662947 0.18041922

fc2.weight f4 [256, 128]
00000000: 9110 9ebc b499 2f3d 4dc4 a03d dd23 52be
00000010: 1a4f 823d 8c3b 613d 2052 45bd 37e0 953d
00000020: beac 333d 5383 8bbd a9f6 7cbd 938b 203d
00000030: e3d9 0a3e ad9e a0bd fc20 463d c101 563d
00000040: 4c2c 7cbd 2d31 e43c 270b 263d 5d3a 90bd
00000050: 39d8 0abc 1373 373d df4a d0bd 62dd 973d
00000060: 4bf8 86bd 5601 14be c502 e03c 9803 c1bd
00000070: 6654 bc3c c3d6 1ebd e7e8 7a3d 6e1c e1bd
00000080: a7ba 1abd a530 b33d 2bb2 b23d 34e2 dc3d
00000090: b593 893c 82df ad3d 991c 8d3c 86d4 393c
000000a0: 6a57 1cbd cb6d 4d3b e40b 5c3d 9e1f 3e3d
000000b0: 9a6f 053e e8d0 093d c1c5 5d3d e4ce c13d
000000c0: 8a7c 8cbd bf4c aebd e58c f4bb a972 3dbd
000000d0: 5a6f a13c 9116 7fbd 68c3 c8ba 3db3 e43d
000000e0: ff8a 6f3d 2450 2b3d 2360 6e3d 6689 b03d
000000f0: 1722 c9bd 1385 c13d 2422 b83d 2c80 e0bd
00000100: e0cd 2fbd d5d7 1bbc f5d5 023c 7c74 10bd
00000110: 63b2 cd3c c9d9 a1bd 646a c2bb fd88 103d
00000120: 8802 a2bc 325b 52bd 862e febc 6f58 cb3b
00000130: 0fbc 26bd bb4a 193d 55df b33c bffe 823d
00000140: 19ba 5bbd 8ea3 353d 3871 b63c 0701 3c3d
00000150: 680a 85bd 748e 5abe bba9 1a3d 3ab0 bfbd
00000160: 0139 9fbc 2eaa 2f3c 7f59 95bd a65f 153e
00000170: f544 bfbc aff6 753d 4ab1 e93c 3562 a7bd
00000180: 8c7b 10be 1391 1e3d 9a4e b7bd a8da 8d3d
00000190: b504 aabd 3c9e b73c e906 97bd caeb a9bd
000001a0: f841 5dbd ae71 cbbc c4d3 24bd d676 9c3d
000001b0: 8f82 593d cde9 82bd 5fd4 9bbc e457 c73d
000001c0: 22ab 19bd eb0e 7d3d d5a5 81bd 00f7 083d
000001d0: ea0a aabc 1a50 9fbd 1434 bfbc 4ea2 8d3c
000001e0: 403b abbc b64a 833e 0f43 8d3d 2ae1 803d
000001f0: 36dd 4bbd f88d aa3d 9ef5 ba3d 61bf 0bbd
00000200: 95fc 5abd 9464 4abc e793 973c e3be 37bd
00000210: 2511 63bd 4f03 2fbd 7a0d 343d eab5 603d
00000220: 2376 a53d 656e 54bd fa3e 9e3d 29a6 9abc
00000230: dbe4 11be 86ce b3bd cedf cd3d 7353 68bd
00000240: 61b0 c8bd f5c1 0d3d edfa d7bd 1194 003e
00000250: 5786 69ba f72e a43d 945c 8abd bae3 913d
00000260: 58c0 a8bd fddc 3a3d 2f47 7abc 935b 633d
00000270: 178e 0cbd 9f66 8d3d b8db fdbb 404f 333b
00000280: 22ec 953d 04b2 b6bd 7112 033d 61a5 c1bd
00000290: a4f2 d8bd ddd4 033d 3bcb 56bd aa98 e33c
000002a0: 4680 2c3d f89b b93d 2367 d9bc b2f5 793c
000002b0: 6a83 bfbc 938f 39b9 d511 6bbd f57b e9bc
000002c0: 89b6 b43d 41f3 c5bd 3649 ec3d 6460 48bd
000002d0: 1617 72bd e35f 303d 2823 0abd f49d debd
000002e0: 9f78 c0bc 56f3 c0bd 63c0 88bd 0786 a7bd
000002f0: eae1 a6bd 62b9 173d daed 4d3d 6804 513d
00000300: 8124 f8bd 82c7 3f3d 7d35 6ebd 3113 05be
00000310: 7ba2 84bc 972a 5cbd 998c 833d 8d43 06bd
00000320: 8322 2ebc 3245 e7bc 9740 763d 7ac4 d1bb
00000330: 22ed 203d d67d ddbc 3f8f a5bd f503 82bb
00000340: b72a ae3d 0894 a63c a72b a23d 8e59 6dbd
00000350: 4bbf 81bd a8b9 86bd 8da7 cf3c 3d95 c4bd
00000360: 6b10 1fbd f6d0 93bb 62c1 a53d 89ca 82bc
00000370: 8254 493b e1bc 9c3c 4cc4 c03d c90c 2dbb
00000380: 39ee 1c3d eb8e 11be f085 d7bd 6f8f 69bd
00000390: 7e35 a6bc 9ed3 0fbd 4a9e e53d 9a23 bfbc
000003a0: 1321 20bd 4e43 bb3d 4f08 0dbe 148a 783d
000003b0: 3afd 7cbb 467c 49bd 9bb3 8d3d f959 b2bd
000003c0: e3b8 4fbd 0f33 c9bb 2576 58bc 1838 3d3d
000003d0: 05df b53d 4eb6 f9bc aa1b f3bc b208 a13c
000003e0: 5fa9 75bb c4f8 bfbd 2e17 87bc de1f 81bd
000003f0: 2fe0 0a3c 889c 1dbc 2a34 17be fd5b 943d
-0.019295009 0.042871192 0.078499414 -0.20521493 0.06362744 0.05498843 -0.048174024 0.07318156
0.04386591 -0.068121575 -0.06175867 0.03919561 0.1355968 -0.07842765 0.0483713 0.052247766
-0.061565682 0.02785548 0.04053798 -0.07042382 -0.008474403 0.044787478 -0.101705305 0.07415272
-0.06590327 -0.14453635 0.02734507 -0.094245136 0.022989463 -0.03877903 0.06125727 -0.10991751
-0.03777566 0.087495126 0.08725389 0.10785332 0.016794065 0.08489896 0.01722555 0.011342173
-0.038169302 0.003134596 0.053722277 0.04641687 0.13030854 0.033646494 0.05414367 0.094632894
-0.068596914 -0.08510732 -0.007463085 -0.046251927 0.019706417 -0.06227738 -0.0015317025 0.111669995
0.058482166 0.041824475 0.058197152 0.08619957 -0.09820955 0.0944921 0.08990887 -0.10961947
-0.042920947 -0.009511908 0.007985582 -0.03526734 0.025109475 -0.07902867 -0.005933093 0.035286892
-0.019776598 -0.051356502 -0.031028043 0.0062056105 -0.04070669 0.037424784 0.021957079 0.06396245
-0.053644273 0.04434543 0.022270784 0.045899417 -0.064961255 -0.21343404 0.037759524 -0.093597844
-0.019436361 0.010721726 -0.07292461 0.14587268 -0.023348311 0.06004971 0.02852692 -0.081730284
-0.1410963 0.038712572 -0.08950539 0.06926471 -0.08301679 0.02241432 -0.07374365 -0.08296926
-0.05401799 -0.02483448 -0.040241018 0.07639854 0.053103026 -0.0639225 -0.019022165 0.09733561
-0.03751672 0.061781805 -0.06330458 0.033438683 -0.020757157 -0.0777895 -0.023340262 0.017289307
-0.020902276 0.25642937 0.06897556 0.06292947 -0.04977151 0.0832786 0.09128879 -0.03411806
-0.053463537 -0.012353081 0.018503143 -0.044859778 -0.055436272 -0.042727765 0.043958165 0.054860987
0.080791734 -0.051863093 0.077268556 -0.01887806 -0.14247458 -0.087796256 0.10052453 -0.05672021
-0.097992666 0.0346088 -0.10545907 0.12556483 -0.0008908263 0.0801677 -0.06755939 0.071235135
-0.08239812 0.045620907 -0.015275761 0.055507254 -0.034315195 0.06904339 -0.00774714 0.002736047
0.073204294 -0.089206725 0.03200001 -0.09455372 -0.10593155 0.032185424 -0.05243991 0.027782757
0.04211452 0.09062952 -0.026538437 0.015256332 -0.023378093 -0.0001769646 -0.057390053 -0.02850149
0.08823878 -0.096655376 0.115374014 -0.04892005 -0.059104048 0.043060195 -0.033724934 -0.10869971
-0.023495017 -0.09421413 -0.0667732 -0.081798606 -0.081485584 0.03704203 0.05027566 0.051029593
-0.121163376 0.046821125 -0.05815648 -0.12995602 -0.016190758 -0.053751554 0.06423301 -0.032779265
-0.010628345 -0.028231237 0.06012019 -0.0064015957 0.039288647 -0.027037542 -0.08083963 -0.003967757
0.08504241 0.020334259 0.07918482 -0.057946734 -0.06335314 -0.0657838 0.02534845 -0.095987774
-0.038834017 -0.004510994 0.080935255 -0.015965717 0.0030720537 0.019133033 0.09412441 -0.0026405326
0.038313124 -0.14214675 -0.105235934 -0.057021555 -0.020289179 -0.035113923 0.11211832 -0.023332406
-0.039094042 0.09143697 -0.137727 0.060678557 -0.0038603083 -0.049190782 0.06919023 -0.08708567
-0.05071343 -0.00614012 -0.013211762 0.046196073 0.08880428 -0.030482437 -0.029676277 0.019657467
-0.0037484986 -0.0937362 -0.016490545 -0.06304906 0.008476301 -0.0096198395 -0.14765993 0.07244108

fc2.bias f4 [256]
00000000: 654f 5b3d 2437 d53d baa5 15bc 1260 913d
00000010: 34b7 12bd ec23 4cbd 5e8a 513d 6ec9 70bd
00000020: a724 543d b21f 7ebd 9898 17bd e080 693b
00000030: 8630 f33b f0ec 393d 9008 9d3d d92a 87bd
00000040: 8438 a43a 4778 bbbb 2477 113a 1488 11bb
00000050: 74ba 0f3d e3b2 9cbd 3af2 0cbd 06c0 3a3d
00000060: 3660 a73d 52ec 2ebd baa6 833d b606 c1bd
00000070: ec38 a4bc 30ee 943c f7d1 093d 7cab afbd
00000080: 6148 e3bc 7861 1cbd ad6f aabd 7244 93bc
00000090: ea75 a6bd be9d 66bd 544b d83c 521c cebd
000000a0: 705c 90bd 4d59 91bd c45c 013c 40ef 663d
000000b0: 7934 7fbc 0372 e3bd 8658 ddbc ddac b23c
000000c0: 8ffe 903d 7bb7 533d fef9 c43c e738 fe3c
000000d0: 5026 a9bc 5208 18bb f681 8f3d 3b69 f4ba
000000e0: a32d 0e3d a3d6 7e3d cec5 f1bc cd48 a53c
000000f0: 53ef 303d 51ab d9bc 42aa fa3a c7e2 ff3c
00000100: 9c50 273d 24dd 473c 9171 81bc 6a7c 413d
00000110: 0ab8 b1bd 5c87 d13c 0138 1a3d ca9b 77bd
00000120: 12d7 373d 9ac8 143d a851 65bd 7607 9dbd
00000130: 3064 8a3d e16f 2abd 1508 2dbd 97e4 ee3c
00000140: edf4 7abd 6b7d a7bd 72d6 633d ed23 8c3d
00000150: fc45 e3bc d7b8 9ebd b6c0 d33c c2b3 443b
00000160: 889b 86bd e3c3 a1bd b2bd 043c 31f7 abbd
00000170: b376 c0bd 780f a8bd 42c2 a9bd d1a9 333d
00000180: da0a adbd ca01 54bd 1c19 623d dc81 0bbd
00000190: 63b4 80bd 765e 433d af26 d2bd c377 763d
000001a0: 0bae 113d d482 92bc f95c 8c3c ce64 c73c
000001b0: 55d3 84bd a04f c7bd 7914 b2bd a104 983d
000001c0: 71b5 473d 5bd7 6e3d d086 82bb e89a 9bbd
000001d0: 4735 36bd 1a2b 89bd 8a8f e5bd aeb0 b13b
000001e0: c3df 003d cded 773d eeb9 29bd c178 1fbd
000001f0: 5f10 773c d314 84bc b400 76bc f148 ff3c
00000200: 532e dc3d 4a6d bc3d 38e8 dd3c 6492 af3c
00000210: 1237 b2bd 4c3e 063d 6783 a5bd d1db 893d
00000220: bfff c6bc 628f 74bc 0c30 543d 7554 59bc
00000230: 3c9b 373d a6b2 13bd 0c29 cebd cafd d4bc
00000240: a0bd 94bd d2b7 a6bd eb62 273c b0ec ddbc
00000250: 577e 9ebd 44aa 473d 22b6 34bd 81aa adbd
00000260: 11f7 a23d 3504 64bd 0bc6 45bd ff5d 1b3d
00000270: e6bc f5bc 8fce a6bd e8ae a9bd c7de 253d
00000280: df74 c8bb 9752 bdbd 0cbf 7ebd d288 883d
00000290: cb6c 793d 9046 58bb 171f babd e086 3e3d
000002a0: 1d67 87bd 036b 8f3a 0754 afbd b265 d03d
000002b0: 65ef 4abc 1474 54bc 1df0 0dbd cf9c 253d
000002c0: 9661 8b3d 235c 27bb c983 e63c 5fd7 9a3c
000002d0: 5b03 98bc 778e 80bd c77f d5bc b1a1 80bd
000002e0: 8550 61bd f415 0dbd 0d2e 5abd 68d2 c23c
000002f0: fbb7 01bd 397a 463d fdba 87bd 2796 333c
00000300: 8d72 80bd 1d79 84bd 8c04 313d bf19 783a
00000310: 4f64 323d 10e2 1e3c 3642 c7bd eafb 193c
00000320: 13ee 59bd e48f 97bc 5cce d9bd e38b d9bc
00000330: cbff 0bbc fa06 993d 531b 9b3d 1b28 11bd
00000340: c052 993a aedb 66bc 5a58 8ebc bdba 8fbd
00000350: 6cc4 81bd 9743 c7bd 5645 2e39 8293 353d
00000360: f3d2 96bd 7628 82bd 658a a7bd d734 7fbd
00000370: 54a8 353d 5153 22bb f556 0ebd fa14 833d
00000380: 3f8e 40bd 353f 843d 496d 1e3d b7e5 d43c
00000390: e77a 273c dade 81bc df4c 4f3d b06f d73b
000003a0: b57f c6bd 0023 98bd ab5a 0c3d 48f7 79bd
000003b0: 0622 44bd 90a2 1b3d 3bbf c0bd 208e 103d
000003c0: 8386 72bd de0f 8e3d 2f39 a7bb 11b0 913c
000003d0: 5f74 5cbc d794 ddbc f4ac 3ebc 6431 b5bb
000003e0: 78db 9cbd 6bf2 49bc a89b f53c c161 f4bb
000003f0: 06f9 88bc 84f4 383d 76d2 aebb bfc9 423d
0.053542513 0.10410908 -0.009133751 0.07098402 -0.035819247 -0.049838945 0.051157348 -0.05878585
0.051792767 -0.062041946 -0.03701076 0.0035629794 0.007421556 0.045391977 0.07667649 -0.065999694
0.001252905 -0.0057211253 0.00055490644 -0.0022206353 0.035089925 -0.076513074 -0.034410693 0.045593284
0.08172648 -0.04270584 0.06428285 -0.09425108 -0.020046674 0.018179983 0.033647504 -0.0857763
-0.027744474 -0.03817889 -0.08322082 -0.017976973 -0.08127959 -0.05630278 0.026403107 -0.100639954
-0.07048881 -0.07097111 0.007895652 0.05638051 -0.015576475 -0.111057304 -0.02701975 0.021810943
0.07079803 0.051688652 0.024044987 0.031032993 -0.020648152 -0.0023198319 0.0700721 -0.0018647084
0.03471149 0.062216412 -0.029513266 0.020176316 0.043196987 -0.026570948 0.0019124227 0.031236066
0.04084836 0.01219872 -0.015801223 0.04723779 -0.08677681 0.02557724 0.037651066 -0.060451306
0.04488284 0.03632412 -0.055986077 -0.07667439 0.067573905 -0.041610602 -0.042244036 0.029161735
-0.061268736 -0.081782185 0.055624433 0.0684279 -0.027743332 -0.07750099 0.025848728 0.003001437
-0.06572634 -0.078986906 0.0081018675 -0.083967574 -0.0939764 -0.082060754 -0.08289005 0.04386312
-0.084493354 -0.05175952 0.055199727 -0.03405939 -0.06284406 0.047697507 -0.102612846 0.060172807
0.03556637 -0.01788465 0.017134177 0.02434006 -0.06485621 -0.09731984 -0.08695311 0.07422758
0.04875702 0.058310848 -0.003983356 -0.075979054 -0.044484403 -0.06697674 -0.112090185 0.005422673
0.031463396 0.06052952 -0.041437082 -0.03893352 0.015079587 -0.016123211 -0.015014816 0.03116271
0.10751023 0.09200533 0.02708827 0.02143211 -0.0870191 0.032774255 -0.08081704 0.0673138
-0.024291871 -0.014926763 0.051803634 -0.013264765 0.044825777 -0.036059044 -0.10066423 -0.025999922
-0.072627306 -0.0814053 0.010216455 -0.0270904 -0.07738941 0.048746362 -0.044119008 -0.08479787
0.079572804 -0.055668075 -0.04828457 0.03793144 -0.0299973 -0.08144867 -0.08285314 0.04049566
-0.0061174477 -0.092442684 -0.062193915 0.066667214 0.06089477 -0.0033001043 -0.09087961 0.046515346
-0.06611464 0.0010941926 -0.08560949 0.10175647 -0.012386178 -0.012967128 -0.034652818 0.040432747
0.068057224 -0.0025537095 0.028139012 0.018901525 -0.018556288 -0.06277173 -0.026061906 -0.0628084
-0.05500843 -0.034444764 -0.053266574 0.02378197 -0.031669598 0.048456404 -0.06627462 0.010961092
-0.06271849 -0.06468413 0.043217227 0.00094642857 0.043552693 0.009697452 -0.097294256 0.00939844
-0.05320556 -0.01850123 -0.10635063 -0.026555961 -0.0085448725 0.07472034 0.07573571 -0.03543864
0.0011697635 -0.014090462 -0.017376114 -0.070180394 -0.063362926 -0.097296886 0.00016619763 0.044330128
-0.07364454 -0.063553736 -0.081806935 -0.06230625 0.044349983 -0.0024768899 -0.034750897 0.06400485
-0.047010656 0.06457368 0.03867844 0.025988443 0.010222173 -0.015853334 0.05061042 0.0065745935
-0.09692327 -0.07428551 0.034266155 -0.06102684 -0.04788401 0.03799683 -0.09411474 0.03529179
-0.05921031 0.0693662 -0.0051032524 0.01778415 -0.013455479 -0.027048511 -0.011637915 -0.0055295695
-0.07659048 -0.012325863 0.02998145 -0.0074579422 -0.016720306 0.045155063 -0.0053351475 0.04755568

fc3.weight f4 [6, 256]
00000000: 0274 babc d2cb 0abc bebf c33c 39d3 9b3b
00000010: c33c 33be 0302 65be a57d 9c3d 1b21 c9bd
00000020: 228c e03d f69b a33c cf56 513d c5d9 54bd
00000030: 2698 c93d 27c4 87bd 9d65 8ebc 6a83 e3bd
00000040: f5c4 8cbd 9c08 4a3d 39f4 1c3d 7990 16bd
00000050: bf1a 9ebd 30df 0ebe e5e1 333d b5f5 003a
00000060: 587b da3c 88d7 123d 9bf3 fcbc 98a5 e33c
00000070: f851 f23d 8af1 afbd dbdb 4a3d 5b07 0ebc
00000080: bdcd 4a3d 601c 1a3d ca3c bf3d 36fb 273d
00000090: 70e3 2b3d a1bc 76bd 5a67 dbba 8666 e5be
000000a0: 6917 543d c1de 2cbd d8ef 76bd e0ce 973d
000000b0: e2aa 623d b541 b4bd 3d94 233c 3aad 353d
000000c0: 081a a03d 59ed 553d beda 993b 1cb1 87bc
000000d0: b45f 08bd 8f6b 40bd a0ed 85bc af5d 143c
000000e0: 0a28 b73d a51e ce3c de6b 1fbe 7c58 75bd
000000f0: e2ef eeb9 31ba 273d d0e4 0ebd 864e 93bd
00000100: b7ce 873c 56cf d7bd 34e4 413d 0b84 ab3c
00000110: a880 dcbb 43cc 25bc 0f3e 4aba e24a b23c
00000120: b078 1dbd 08a9 16be b237 9ebd 71ea 8fbd
00000130: 896c c83d 91a2 ac3d b477 4a3d 9a40 883d
00000140: f031 a1bb ae14 0abd 8191 5d3d 208a f2bd
00000150: 51ec f83c f603 eb3d 44d4 00bd caa1 0d3d
00000160: cdb3 cfbd a093 103d 8f9d cebc 829f 9a3d
00000170: bc65 38bd 9e40 05bd 11d2 3cbb d743 19bd
00000180: c7f9 23bd a1f1 893d 0b63 703c 93f6 133d
00000190: 685f 703d 0464 863d 3752 593d 93b5 b5bd
000001a0: 8728 2e3d 5028 383d 245a 05bd f328 a03d
000001b0: d04f 8f3d 07ae 35be b08c c1bb 5902 533d
000001c0: cd68 81be b89d c0bd 23f3 063e 4f86 f23b
000001d0: e8c9 a03b 68b7 f5bd 7046 093c 2c87 08bd
000001e0: 4294 bd3c 631f fabb b2e2 0b3e c1b8 71bd
000001f0: 95d2 7f3d b1ad 053d e593 c0bb 66f3 11be
00000200: d992 843d cbb7 15bd 627a 013d 0402 883d
00000210: e529 7c3d c15b df3d 1ebe 87bd a8d9 b4bb
00000220: bd05 cc3c 5b52 ed3c 765d b93d 4df9 c9bd
00000230: 67a7 5e3c 8777 093e 6aeb 48bc 451a 1f3d
00000240: 7360 8abd 96b4 febe 8f15 07bf 5222 1f3d
00000250: d4a9 fdbc a2ec b9bd ad6a 84bd e168 87bc
00000260: afb7 ab3d a6c5 803c 5e7e dcbc 3802 a93c
00000270: e7dc 893d 6509 823d 6a72 003d 1d76 b8bc
00000280: 9cf7 95be bea5 ad3d 2f32 7b3d eac5 c63c
00000290: f280 253d 3523 22bd 0086 b4bd 9eb5 1e3d
000002a0: eed0 44bd 420c fdbd c1ef aabc be55 f0bb
000002b0: dfb2 9fbc 6b0d 06bc f59e 043c cd55 2ebd
000002c0: 471b 713c c4d0 983d adcc 9dbc 6259 913c
000002d0: 9d4e 473d 383d 883d 1cd5 ce3c 60ee 053e
000002e0: 59a7 5fbd 4616 753d 9fac 6fbd f7f2 16bc
000002f0: dd79 27bd 2a95 44bd 0fbe d8bd 09c0 de3c
00000300: 807a 703d 8866 6fbd 48ec 6c3d 109c 6fbc
00000310: 33e8 13bd 42cf 413d 2626 e93b 8107 ea3c
00000320: 708d 12bd 91fa 2dbd 8b41 933d 6167 333c
00000330: 8d20 03bd 6b65 8f3b 53f6 6e3d 839d 50be
00000340: 2aab dc3c dc01 d7ba 163f 84bd 541b 993d
00000350: db48 cebc d142 ab3d c7c8 b2bc ddb1 d73c
00000360: aa42 79bc bc79 cbbc 6fc6 cebd 43d1 0b3d
00000370: ccd9 9a3d b5cf 143d e659 6d3d 5d10 413d
00000380: 573d 213d 06a2 fdbc 7ce2 113e 1482 293d
00000390: 5e13 2e3d fe20 bbbc a839 2ebd 3a02 44bd
000003a0: a90d c2bd 356c 09bd 842e 1abd 6422 9d3c
000003b0: 7894 f83c 749f ba3b 2034 903d 30e6 ef3d
000003c0: ad99 0cbc b796 e0bc 161d 203d c298 343d
000003d0: bf30 a6bc e838 4ebd 7ca0 813d 0ce8 ae3d
000003e0: 710c ae3c 281e 9dbc f781 f8bc c9ef 95bd
000003f0: 2012 59bb 2560 003d e089 803b 8653 fe3d
-0.022760395 -0.008471446 0.02389514 0.0047554043 -0.17503648 -0.22364049 0.07641152 -0.098207675
0.10964228 0.019971829 0.051108178 -0.051965494 0.09843473 -0.0662921 -0.017382437 -0.111090496
-0.06873504 0.049324617 0.038318846 -0.036758874 -0.07719945 -0.13952327 0.0439166 0.00049194257
0.026670143 0.035850078 -0.030877879 0.027788922 0.118320405 -0.08590992 0.049526077 -0.008668746
0.049512614 0.037624717 0.093377665 0.041011058 0.04196495 -0.060238484 -0.0016739175 -0.44804782
0.05178014 -0.042204622 -0.060287327 0.07412505 0.055338748 -0.08801595 0.009984073 0.044354655
0.07817465 0.052228305 0.0046952656 -0.016563945 -0.033294395 -0.046977576 -0.01634866 0.009055539
0.08943184 0.025161097 -0.15568492 -0.05989884 -0.00045573624 0.04094905 -0.03488618 -0.071927115
0.016578062 -0.10537593 0.047336772 0.020936986 -0.006729204 -0.010119501 -0.0007714936 0.021764223
-0.038445175 -0.14712918 -0.07725467 -0.07027138 0.097863264 0.084294446 0.049430564 0.06652947
-0.004919283 -0.033711128 0.05409384 -0.118427515 0.030386122 0.11475365 -0.031452432 0.034578122
-0.10141716 0.035297036 -0.025221614 0.07549955 -0.045018896 -0.032532327 -0.0028811733 -0.037418213
-0.040033128 0.0673554 0.014672051 0.036123823 0.058684736 0.06562045 0.05305692 -0.08872523
0.04251912 0.04496032 -0.032556668 0.078203104 0.06997645 -0.17742167 -0.005906664 0.05151591
-0.2527527 -0.094050825 0.13178687 0.0074012647 0.0049068816 -0.119978726 0.00837861 -0.033332035
0.023141984 -0.007633136 0.13660696 -0.059014086 0.062456686 0.03263635 -0.0058770054 -0.14253005
0.064733215 -0.03655223 0.031610854 0.066410094 0.06156339 0.109061725 -0.06628059 -0.0055191107
0.02490508 0.028969934 0.090510294 -0.098620035 0.0135897165 0.13424502 -0.012263158 0.038843412
-0.067566775 -0.4974715 -0.5276727 0.03885109 -0.03096477 -0.09078337 -0.06465659 -0.016529502
0.08384644 0.015719246 -0.026915725 0.02063094 0.06731587 0.06349448 0.031359114 -0.022517258
-0.29290473 0.084788784 0.061327156 0.024264295 0.040406175 -0.039584357 -0.08814621 0.038747422
-0.048050813 -0.123558536 -0.020866277 -0.00733444 -0.019494472 -0.00818191 0.008094539 -0.042562295
0.014715976 0.07461694 -0.019262636 0.017742816 0.048658956 0.066523015 0.025248103 0.13079214
-0.054602955 0.059835695 -0.058514234 -0.009213201 -0.040887702 -0.047993816 -0.10583126 0.027191179
0.058710575 -0.05844739 0.057842523 -0.014624611 -0.036110114 0.047316797 0.0071151434 0.028568031
-0.035779417 -0.042475287 0.07190236 0.01094994 -0.032013465 0.0043761036 0.05834038 -0.20372586
0.026937086 -0.0016403752 -0.06457345 0.074759156 -0.025181225 0.083623536 -0.021824254 0.026329929
-0.015213648 -0.02483832 -0.10096442 0.034135114 0.07561073 0.036330897 0.057947062 0.047134746
0.03936514 -0.030961048 0.14246553 0.041383818 0.04249894 -0.02284288 -0.042535454 -0.047853686
-0.09475262 -0.03355046 -0.037642017 0.019181438 0.030344233 0.005695278 0.07041192 0.11713827
-0.008581561 -0.027415616 0.03909024 0.044090994 -0.020286916 -0.05034724 0.06329438 0.08540353
0.021246167 -0.019179419 -0.03033541 -0.07321126 -0.0033122376 0.03134169 0.003922686 0.124182746

fc3.bias f4 [6]
00000000: 2454 6d3d 2f0e 28bc 9809 d4bc d5db c83c
00000010: b17b de3b d0a1 44bd
0.05794157 -0.010257288 -0.02588348 0.024518887 0.0067896475 -0.04800588

fc4.weight f4 [1, 256]
00000000: cfc8 4fbd a543 b13d ce40 39bd 0520 543e
00000010: 32e9 433c 5991 133d c6e5 9ebd 22a9 ce3c
00000020: ec7d 7c3d 3e0d 853c ff58 953c 22d4 bf3d
00000030: 2073 3d3d f0ac 363e 369d 503d f8c0 2cbd
00000040: 540f 7e3c bc8b d5bc 6460 e23d 1ee8 993b
00000050: 52f6 3dbd 128e b3bd 5e3a 403d dee2 813d
00000060: 9046 42be 6c86 bfbc 1fc0 7ebd 1a82 883c
00000070: 023d 803d 8cb0 1fbe f183 acbd d1c6 15be
00000080: cbd7 70bd 6291 873d 11c3 263e 1935 d03d
00000090: 8295 803d dbfa 0ebd 193e 383d 6377 043c
000000a0: 1f8d ca3d d947 793d 707c a13d eabf 0f3e
000000b0: f20f 983d b727 a7bd 2112 863d 4801 a83c
000000c0: 33b3 7e3c d314 cd3c 3f91 d93b 3ba5 62bc
000000d0: e623 7fbc d6de 36be 62aa 6b3c f57b 85be
000000e0: ab1d 42bd 760f 983d b01a 8ebd 0058 80bc
000000f0: 0aa8 a5bb 8a23 00bd 4cf3 82bd b591 8d3a
00000100: 98ca a33c f439 a2bc 6046 923c eae6 fcbd
00000110: 1bff b63c ef11 04bd 9cfe 883d 6c08 db3c
00000120: 953b a9bd a461 8f3d bcdf 683d f68b cc3c
00000130: 1fac e93d 22a4 033d 25ec 99bc 061c ac3c
00000140: d800 2cbd 3729 07bc 9ff4 ca3c 1d9a 303d
00000150: 36ad c83c 2cff 0fbd e949 7d3d cee0 2a3d
00000160: ddc0 bf3d ff63 16be 67df 0b3e feb2 5aba
00000170: aacc 243c 9df9 83bd 1ca9 5dbd c9d0 a03c
00000180: b177 16be 2a11 6639 e91c 3fbe bf8d 91bc
00000190: a289 f93c 78b7 373d 59f7 23bd 0827 a63d
000001a0: 943b 86bd 3881 063c afb5 273d 1c3e 27bd
000001b0: 768c d83d c491 d53b d57a eabc 57ee c8bc
000001c0: 88fc 57bc be1d adbd be14 2e3d bf13 98bb
000001d0: 145b 10bd 3ef4 6c3d ce20 f53d ddf8 a53c
000001e0: 67a2 d93b 90c7 e5bb adf6 03bd 05ff 113c
000001f0: 6524 1dbd 7d1e be3c b41e 5c3d e44d a13c
00000200: 37de a53c 3e95 d4bd 2b96 e5bc 4d1c b5bd
00000210: c3b7 b33d a544 af3d 4c42 b3bc 7b59 a6bc
00000220: 8643 56be 4168 4e3d 0a5d bfbc 2bde be3d
00000230: 099d d73c 83f2 853d 3c7f bc3d 913c 65bd
00000240: 5c92 c3bc 2a21 cb3b 957d cd3c 58ef 5c3c
00000250: 9a70 76bd fd99 f73d e43c d53d 63ad 223a
00000260: 9cf6 053e a296 3c3e 03e4 b3bc 1a7e 3dbd
00000270: d881 52be 248a 30bb 0df9 0f3d c8bc 3cbe
00000280: 0f1a a93a a6e5 bc3d 2602 3abd a3c8 9b3d
00000290: b1b5 3bbd 751c 8cbd b655 d13c d3c1 8d3d
000002a0: 692d 7dbc 5bc8 60be 96e6 13bc 7e5a fcbc
000002b0: 3a9c 0b3e 7fa5 77be d2a9 6abc 5529 493d
000002c0: 7e8d 76ba b74c ad3d 57e8 80be a98e c53d
000002d0: 23e0 273e b912 3a3e de80 223d c1b5 c8bc
000002e0: bc59 8ebd b987 023d 5f19 eabd b8c7 b9bc
000002f0: 0726 023d ad10 993d fbe9 ccbd b7bd 0c3c
00000300: 8dca f13d a56f 0a3d e398 84bc a00d 57bd
00000310: 711f 1ebd 38e5 e0bd 8dc1 3c3d 9528 18be
00000320: a1f3 023d fd3d f23c 797b 49be 1df3 673d
00000330: b9dc 79bd 53e3 ac3c 49d5 f5b9 4613 3c3e
00000340: 4be4 e7bd 6d10 b7bb daae 4c3a 1e7d 8cbe
00000350: 845b d0bb 00cd ecbd 707a 933d 916f a33d
00000360: 1f8d 073d c790 24bb b5b6 24bd 5bc5 033d
00000370: 7a13 a9bd 81c6 62bd 13c0 483c 44bd 35bc
00000380: 7eec 033e 89db 2ebd d972 6cbc 4587 013d
00000390: 1673 103c f506 f33b d5cd 3dbd 1a3f 3b3e
000003a0: 2188 1ebd bca0 33bd 9370 013d 677d ca3c
000003b0: 7ab4 aabd 0dee 7abd b2e2 0d3d 6455 2dbd
000003c0: 6582 e8bc 4dcc 183d 0e18 8fbc 54b3 053d
000003d0: 7adc 26bd a452 bebd a0aa c53d a564 043d
000003e0: 64ac 903c ed09 eebc 3a35 89bd 85e4 c03c
000003f0: 5c1e c1bb ca11 723d d7a2 14bd 1821 063e
-0.050728615 0.0865548 -0.04522782 0.2071534 0.011957454 0.036027286 -0.077586696 0.025227133
0.061643526 0.016241666 0.018230913 0.09366633 0.04625237 0.17839408 0.050931178 -0.042176217
0.015506584 -0.026067607 0.11053541 0.00469686 -0.046377487 -0.08767332 0.046930663 0.063420996
-0.1897223 -0.023379527 -0.06219494 0.0166636 0.06261636 -0.15594691 -0.08423603 -0.14626624
-0.058799546 0.066195264 0.1628535 0.101663776 0.06278516 -0.034907203 0.044981096 0.008085105
0.09890198 0.060859535 0.07885063 0.14038053 0.07424916 -0.08161872 0.065464266 0.020508423
0.015545654 0.025034344 0.006639629 -0.013833339 -0.015572524 -0.17858443 0.014383884 -0.26071134
-0.047391575 0.07424824 -0.06938684 -0.015666962 -0.005055432 -0.031283893 -0.063940614 0.001080087
0.019994065 -0.019803025 0.017855823 -0.12348731 0.02233844 -0.032243665 0.06689188 0.026737414
-0.082633175 0.07001045 0.056853995 0.024969082 0.114097826 0.03213895 -0.01878936 0.021009456
-0.041992992 -0.0082495725 0.024774848 0.043115724 0.024496656 -0.03515546 0.061838064 0.041718297
0.093629576 -0.14686583 0.1365944 -0.0008342712 0.010058561 -0.06444094 -0.054116353 0.019630807
-0.14694096 0.00021940903 -0.18663372 -0.017767785 0.030461136 0.044852704 -0.04003081 0.08112913
-0.065543324 0.008209519 0.04094475 -0.040830716 0.10573666 0.0065176208 -0.028623024 -0.024527712
-0.013182767 -0.084529385 0.04250025 -0.004641026 -0.03524311 0.057850115 0.119691476 0.020260269
0.0066416743 -0.007012315 -0.03221767 0.008910899 -0.038364787 0.023207897 0.05374022 0.019690461
0.020247562 -0.10380028 -0.028025707 -0.088432886 0.08775284 0.08558015 -0.021882199 -0.02030634
-0.20924196 0.050392393 -0.023359794 0.09319719 0.026319997 0.06540396 0.092039555 -0.055965964
-0.0238735 0.006199022 0.025084296 0.013484798 -0.06016598 0.12089918 0.104120046 0.0006205646
0.13082355 0.18416837 -0.02195931 -0.046262838 -0.20557344 -0.0026937807 0.035149623 -0.1843139
0.0012901443 0.092234895 -0.045412205 0.07606628 -0.04582757 -0.06841365 0.025553565 0.06921735
-0.015452721 -0.2195143 -0.009027144 -0.030804869 0.13633814 -0.24184225 -0.014322715 0.049111683
-0.0009405239 0.08461898 -0.2517726 0.09646351 0.16394095 0.18171205 0.03967368 -0.02450073
-0.06950709 0.031867716 -0.114306204 -0.022678241 0.031774547 0.07473884 -0.10005566 0.008590153
0.118062116 0.03379788 -0.016186183 -0.05250323 -0.038604204 -0.1098122 0.046083022 -0.14859231
0.031970624 0.029570574 -0.19676007 0.056628335 -0.061001513 0.02110449 -0.0004688895 0.18366727
-0.1132284 -0.005586675 0.00078080373 -0.27439207 -0.0063585658 -0.11562538 0.072010875 0.07980264
0.033093568 -0.0025110708 -0.040213306 0.032170635 -0.08255668 -0.05536509 0.012252825 -0.011092488
0.12883183 -0.042689834 -0.014431679 0.031623144 0.008816501 0.007416601 -0.046338875 0.1828579
-0.03870404 -0.04385446 0.0316015 0.024718 -0.083352044 -0.06126218 0.03464002 -0.042317763
-0.02838249 0.03730421 -0.017467525 0.032641724 -0.040737607 -0.09293106 0.09651685 0.032322545
0.017660327 -0.029057467 -0.06699605 0.023546467 -0.0058935117 0.059098996 -0.03628811 0.13098562
